…
(210, 256, 256, 3)
(210, 256, 256)
X.shape= (210, 256, 256, 3)
Y.shape= (210, 256, 256)
X_train.shape =  (147, 256, 256, 3)
y_train.shape =  (147, 256, 256)
X_test.shape =  (63, 256, 256, 3)
Y_test.shape =  (63, 256, 256)
input_shape =  (256, 256, 1)
Model: "functional_1"
__________________________________________________________________________________________________
Layer (type)                    Output Shape         Param #     Connected to                     
==================================================================================================
input_1 (InputLayer)            [(None, 256, 256, 3) 0                                            
__________________________________________________________________________________________________
conv2d (Conv2D)                 (None, 256, 256, 8)  224         input_1[0][0]                    
__________________________________________________________________________________________________
batch_normalization (BatchNorma (None, 256, 256, 8)  32          conv2d[0][0]                     
__________________________________________________________________________________________________
conv2d_1 (Conv2D)               (None, 256, 256, 8)  584         batch_normalization[0][0]        
__________________________________________________________________________________________________
batch_normalization_1 (BatchNor (None, 256, 256, 8)  32          conv2d_1[0][0]                   
__________________________________________________________________________________________________
max_pooling2d (MaxPooling2D)    (None, 128, 128, 8)  0           batch_normalization_1[0][0]      
__________________________________________________________________________________________________
batch_normalization_2 (BatchNor (None, 128, 128, 8)  32          max_pooling2d[0][0]              
__________________________________________________________________________________________________
conv2d_2 (Conv2D)               (None, 128, 128, 16) 1168        batch_normalization_2[0][0]      
__________________________________________________________________________________________________
batch_normalization_3 (BatchNor (None, 128, 128, 16) 64          conv2d_2[0][0]                   
__________________________________________________________________________________________________
conv2d_3 (Conv2D)               (None, 128, 128, 16) 2320        batch_normalization_3[0][0]      
__________________________________________________________________________________________________
batch_normalization_4 (BatchNor (None, 128, 128, 16) 64          conv2d_3[0][0]                   
__________________________________________________________________________________________________
max_pooling2d_1 (MaxPooling2D)  (None, 64, 64, 16)   0           batch_normalization_4[0][0]      
__________________________________________________________________________________________________
batch_normalization_5 (BatchNor (None, 64, 64, 16)   64          max_pooling2d_1[0][0]            
__________________________________________________________________________________________________
conv2d_4 (Conv2D)               (None, 64, 64, 32)   4640        batch_normalization_5[0][0]      
__________________________________________________________________________________________________
batch_normalization_6 (BatchNor (None, 64, 64, 32)   128         conv2d_4[0][0]                   
__________________________________________________________________________________________________
conv2d_5 (Conv2D)               (None, 64, 64, 32)   9248        batch_normalization_6[0][0]      
__________________________________________________________________________________________________
batch_normalization_7 (BatchNor (None, 64, 64, 32)   128         conv2d_5[0][0]                   
__________________________________________________________________________________________________
max_pooling2d_2 (MaxPooling2D)  (None, 32, 32, 32)   0           batch_normalization_7[0][0]      
__________________________________________________________________________________________________
batch_normalization_8 (BatchNor (None, 32, 32, 32)   128         max_pooling2d_2[0][0]            
__________________________________________________________________________________________________
conv2d_6 (Conv2D)               (None, 32, 32, 64)   18496       batch_normalization_8[0][0]      
__________________________________________________________________________________________________
batch_normalization_9 (BatchNor (None, 32, 32, 64)   256         conv2d_6[0][0]                   
__________________________________________________________________________________________________
conv2d_7 (Conv2D)               (None, 32, 32, 64)   36928       batch_normalization_9[0][0]      
__________________________________________________________________________________________________
batch_normalization_10 (BatchNo (None, 32, 32, 64)   256         conv2d_7[0][0]                   
__________________________________________________________________________________________________
max_pooling2d_3 (MaxPooling2D)  (None, 16, 16, 64)   0           batch_normalization_10[0][0]     
__________________________________________________________________________________________________
batch_normalization_11 (BatchNo (None, 16, 16, 64)   256         max_pooling2d_3[0][0]            
__________________________________________________________________________________________________
conv2d_8 (Conv2D)               (None, 16, 16, 128)  73856       batch_normalization_11[0][0]     
__________________________________________________________________________________________________
batch_normalization_12 (BatchNo (None, 16, 16, 128)  512         conv2d_8[0][0]                   
__________________________________________________________________________________________________
conv2d_9 (Conv2D)               (None, 16, 16, 128)  147584      batch_normalization_12[0][0]     
__________________________________________________________________________________________________
batch_normalization_13 (BatchNo (None, 16, 16, 128)  512         conv2d_9[0][0]                   
__________________________________________________________________________________________________
max_pooling2d_4 (MaxPooling2D)  (None, 8, 8, 128)    0           batch_normalization_13[0][0]     
__________________________________________________________________________________________________
batch_normalization_14 (BatchNo (None, 8, 8, 128)    512         max_pooling2d_4[0][0]            
__________________________________________________________________________________________________
conv2d_10 (Conv2D)              (None, 8, 8, 256)    295168      batch_normalization_14[0][0]     
__________________________________________________________________________________________________
batch_normalization_15 (BatchNo (None, 8, 8, 256)    1024        conv2d_10[0][0]                  
__________________________________________________________________________________________________
conv2d_11 (Conv2D)              (None, 8, 8, 256)    590080      batch_normalization_15[0][0]     
__________________________________________________________________________________________________
batch_normalization_16 (BatchNo (None, 8, 8, 256)    1024        conv2d_11[0][0]                  
__________________________________________________________________________________________________
max_pooling2d_5 (MaxPooling2D)  (None, 4, 4, 256)    0           batch_normalization_16[0][0]     
__________________________________________________________________________________________________
batch_normalization_17 (BatchNo (None, 4, 4, 256)    1024        max_pooling2d_5[0][0]            
__________________________________________________________________________________________________
conv2d_12 (Conv2D)              (None, 4, 4, 512)    1180160     batch_normalization_17[0][0]     
__________________________________________________________________________________________________
batch_normalization_18 (BatchNo (None, 4, 4, 512)    2048        conv2d_12[0][0]                  
__________________________________________________________________________________________________
conv2d_13 (Conv2D)              (None, 4, 4, 512)    2359808     batch_normalization_18[0][0]     
__________________________________________________________________________________________________
batch_normalization_19 (BatchNo (None, 4, 4, 512)    2048        conv2d_13[0][0]                  
__________________________________________________________________________________________________
conv2d_transpose (Conv2DTranspo (None, 8, 8, 64)     131136      batch_normalization_19[0][0]     
__________________________________________________________________________________________________
batch_normalization_20 (BatchNo (None, 8, 8, 64)     256         conv2d_transpose[0][0]           
__________________________________________________________________________________________________
concatenate (Concatenate)       (None, 8, 8, 320)    0           batch_normalization_20[0][0]     
                                                                 batch_normalization_16[0][0]     
__________________________________________________________________________________________________
conv2d_14 (Conv2D)              (None, 8, 8, 256)    737536      concatenate[0][0]                
__________________________________________________________________________________________________
batch_normalization_21 (BatchNo (None, 8, 8, 256)    1024        conv2d_14[0][0]                  
__________________________________________________________________________________________________
conv2d_15 (Conv2D)              (None, 8, 8, 256)    590080      batch_normalization_21[0][0]     
__________________________________________________________________________________________________
batch_normalization_22 (BatchNo (None, 8, 8, 256)    1024        conv2d_15[0][0]                  
__________________________________________________________________________________________________
conv2d_transpose_1 (Conv2DTrans (None, 16, 16, 32)   32800       batch_normalization_22[0][0]     
__________________________________________________________________________________________________
batch_normalization_23 (BatchNo (None, 16, 16, 32)   128         conv2d_transpose_1[0][0]         
__________________________________________________________________________________________________
concatenate_1 (Concatenate)     (None, 16, 16, 160)  0           batch_normalization_23[0][0]     
                                                                 batch_normalization_13[0][0]     
__________________________________________________________________________________________________
conv2d_16 (Conv2D)              (None, 16, 16, 128)  184448      concatenate_1[0][0]              
__________________________________________________________________________________________________
batch_normalization_24 (BatchNo (None, 16, 16, 128)  512         conv2d_16[0][0]                  
__________________________________________________________________________________________________
conv2d_17 (Conv2D)              (None, 16, 16, 128)  147584      batch_normalization_24[0][0]     
__________________________________________________________________________________________________
batch_normalization_25 (BatchNo (None, 16, 16, 128)  512         conv2d_17[0][0]                  
__________________________________________________________________________________________________
conv2d_transpose_2 (Conv2DTrans (None, 32, 32, 16)   8208        batch_normalization_25[0][0]     
__________________________________________________________________________________________________
batch_normalization_26 (BatchNo (None, 32, 32, 16)   64          conv2d_transpose_2[0][0]         
__________________________________________________________________________________________________
concatenate_2 (Concatenate)     (None, 32, 32, 80)   0           batch_normalization_26[0][0]     
                                                                 batch_normalization_10[0][0]     
__________________________________________________________________________________________________
conv2d_18 (Conv2D)              (None, 32, 32, 64)   46144       concatenate_2[0][0]              
__________________________________________________________________________________________________
batch_normalization_27 (BatchNo (None, 32, 32, 64)   256         conv2d_18[0][0]                  
__________________________________________________________________________________________________
conv2d_19 (Conv2D)              (None, 32, 32, 64)   36928       batch_normalization_27[0][0]     
__________________________________________________________________________________________________
batch_normalization_28 (BatchNo (None, 32, 32, 64)   256         conv2d_19[0][0]                  
__________________________________________________________________________________________________
conv2d_transpose_3 (Conv2DTrans (None, 64, 64, 8)    2056        batch_normalization_28[0][0]     
__________________________________________________________________________________________________
batch_normalization_29 (BatchNo (None, 64, 64, 8)    32          conv2d_transpose_3[0][0]         
__________________________________________________________________________________________________
concatenate_3 (Concatenate)     (None, 64, 64, 40)   0           batch_normalization_29[0][0]     
                                                                 batch_normalization_7[0][0]      
__________________________________________________________________________________________________
conv2d_20 (Conv2D)              (None, 64, 64, 32)   11552       concatenate_3[0][0]              
__________________________________________________________________________________________________
batch_normalization_30 (BatchNo (None, 64, 64, 32)   128         conv2d_20[0][0]                  
__________________________________________________________________________________________________
conv2d_21 (Conv2D)              (None, 64, 64, 32)   9248        batch_normalization_30[0][0]     
__________________________________________________________________________________________________
batch_normalization_31 (BatchNo (None, 64, 64, 32)   128         conv2d_21[0][0]                  
__________________________________________________________________________________________________
conv2d_transpose_4 (Conv2DTrans (None, 128, 128, 4)  516         batch_normalization_31[0][0]     
__________________________________________________________________________________________________
batch_normalization_32 (BatchNo (None, 128, 128, 4)  16          conv2d_transpose_4[0][0]         
__________________________________________________________________________________________________
concatenate_4 (Concatenate)     (None, 128, 128, 20) 0           batch_normalization_32[0][0]     
                                                                 batch_normalization_4[0][0]      
__________________________________________________________________________________________________
conv2d_22 (Conv2D)              (None, 128, 128, 16) 2896        concatenate_4[0][0]              
__________________________________________________________________________________________________
batch_normalization_33 (BatchNo (None, 128, 128, 16) 64          conv2d_22[0][0]                  
__________________________________________________________________________________________________
conv2d_23 (Conv2D)              (None, 128, 128, 16) 2320        batch_normalization_33[0][0]     
__________________________________________________________________________________________________
batch_normalization_34 (BatchNo (None, 128, 128, 16) 64          conv2d_23[0][0]                  
__________________________________________________________________________________________________
conv2d_transpose_5 (Conv2DTrans (None, 256, 256, 2)  130         batch_normalization_34[0][0]     
__________________________________________________________________________________________________
batch_normalization_35 (BatchNo (None, 256, 256, 2)  8           conv2d_transpose_5[0][0]         
__________________________________________________________________________________________________
concatenate_5 (Concatenate)     (None, 256, 256, 10) 0           batch_normalization_35[0][0]     
                                                                 batch_normalization_1[0][0]      
__________________________________________________________________________________________________
conv2d_24 (Conv2D)              (None, 256, 256, 16) 1456        concatenate_5[0][0]              
__________________________________________________________________________________________________
batch_normalization_36 (BatchNo (None, 256, 256, 16) 64          conv2d_24[0][0]                  
__________________________________________________________________________________________________
conv2d_25 (Conv2D)              (None, 256, 256, 16) 2320        batch_normalization_36[0][0]     
__________________________________________________________________________________________________
batch_normalization_37 (BatchNo (None, 256, 256, 16) 64          conv2d_25[0][0]                  
__________________________________________________________________________________________________
conv2d_26 (Conv2D)              (None, 256, 256, 1)  17          batch_normalization_37[0][0]     
==================================================================================================
Total params: 6,682,383
Trainable params: 6,675,011
Non-trainable params: 7,372
__________________________________________________________________________________________________
Epoch 1/300
1/2 [==============>...............] - ETA: 0s - loss: 453.7832 -
…
